…
nTrain the model as usual:\n\nepochs = 500\n\nnet_normal = NeuralNetRegressor(\n    module=NonLinearRegressionNormal,\n    module__dropout=0.1,\n    module__hidden_size=64,\n    module__hidden_layers=3,\n    optimizer=torch.optim.AdamW,\n    iterator_train__shuffle=True,\n    criterion=NormalLoss,\n    max_epochs=epochs,\n    verbose=0\n)\n\nx_train_input = torch.tensor(x_train, dtype=torch.float).unsqueeze(-1)\nnet_normal.fit(x_train_input, torch.tensor(y_train, dtype=torch.float))\n\n<class 'skorch.regressor.NeuralNetRegressor'>[initialized](\n  module_=NonLinearRegressionNormal(\n    (input): Linear(in_features=1, out_features=64, bias=True)\n    (dropout): Dropout(p=0.1, inplace=False)\n    (linears): ModuleList(\n      (0): Linear(in_features=64, out_features=64, bias=True)\n      (1): Linear(in_features=64, out_features=64, bias=True)\n      (2): Linear(in_features=64, out_features=64, bias=True)\n    )\n    (dropouts): ModuleList(\n      (0): Dropout(p=0.1, inplace=False)\n      (1): Dropout(p=0.1, inplace=False)\n      (2): Dropout(p=0.1, inplace=False)\n    )\n    (output): Linear(in_features=64, out_features=1, bias=True)\n  ),\n)\n\n\nThen calculate some predictions, the actual function is plotted using blue, with the predictions and prediction interval plotted in red. This is an MLE solution with a 95% confidence interval."
  },
  {
    "objectID": "posts/2021-08-16-mc-dropout-uncertainty/index.html#uncertainty-with-mc-dropout",
    "href": "posts/2021-08-16-mc-dropout-uncertainty/index.html#uncertainty-with-mc-dropout",
…
k. However, if we leave dropout on when making predictions, then we create an ensemble of models which output slightly different predictions. It turns out that this is equivalent Bayesian variational inference with some assumptions. We can then calculate the mean and and uncertainty intervals we wish.\nWe can easily implement MC dropout and visualise the uncertainty provided with this method. First, we extract the module from the Skorch NeuralNet class and put it in train mode, this means we make predictions with dropout ON.\n\nnet_normal.module_.train()\n\nNonLinearRegressionNormal(\n  (input): Linear(in_features=1, out_features=64, bias=True)\n  (dropout): Dropout(p=0.1, inplace=False)\n  (linears): ModuleList(\n    (0): Linear(in_features=64, out_features=64, bias=True)\n    (1): Linear(in_features=64, out_features=64, bias=True)\n    (2): Linear(in_features=64, out_features=64, bias=True)\n  )\n  (dropouts): ModuleList(\n    (0): Dropout(p=0.1, inplace=False)\n    (1): Dropout(p=0.1, inplace=False)\n    (2): Dropout(p=0.1, inplace=False)\n  )\n  (output): Linear(in_features=64, out_features=1, bias=True)\n)\n\n\nLet’s write a convenience function for making multiple predictions and combining them into a single numpy array.\n\ndef get_predictions(model, x, n):\n  # Make multiple predictions\n  mus, sigmas = zip(*[model(x) for _ in range(n)])\n\n  # Sample from the observation distribution using each mean and the global sigma\n  return [Normal(mu, log_sigma
…
 access the data and pass it to the module properly.\n\nfrom skorch.helper import SliceDict\n\nXs = SliceDict(\n    x_cat=preprocessed_df[cat_cols].to_numpy(dtype=\"long\"), \n    x_con=torch.tensor(preprocessed_df[num_cols].to_numpy(), dtype=torch.float)\n)\n\nWe can now use the sklearn fit method with our PyTorch model. This trains the weights of the neural network using back-propagation.\n\nnet.fit(Xs, y=torch.tensor(y_train, dtype=torch.float))\n\n<class 'skorch.classifier.NeuralNetBinaryClassifier'>[initialized](\n  module_=EmbeddingClassification(\n    (embeddings): ModuleList(\n      (0): Embedding(2, 64)\n      (1): Embedding(7, 64)\n    )\n    (fc1): Linear(in_features=128, out_features=64, bias=True)\n    (fc2): Linear(in_features=2, out_features=64, bias=True)\n    (relu): ReLU()\n    (out): Linear(in_features=128, out_features=1, bias=True)\n  ),\n)\n\n\nFinally, we pre-process the test data by re-using the pipelines from the training data and we can calculate the test accuracy.\n\nfrom sklearn.metrics import classification_report\n\nx_test_pre = preprocessor.transform(x_test)\npreprocessed_test = pd.DataFrame(x_test_pre, columns=num_cols + cat_cols)\n\nXs_test = SliceDict(\n    x_cat=prepr
…
